…
2024-04-22 20:15:01, INFO: Current re_collision: -0.25
2024-04-22 20:15:01, INFO: Current re_arrival: 0.25
2024-04-22 20:15:01, INFO: Current config content is :<module 'config' from 'data/single/sg_dq3n/config.py'>
2024-04-22 20:15:01, INFO: Using device: cpu
2024-04-22 20:15:01, INFO: Query environment: True
2024-04-22 20:15:01, INFO: Similarity_func: embedded_gaussian
2024-04-22 20:15:01, INFO: Layerwise_graph: True
2024-04-22 20:15:01, INFO: Skip_connection: False
2024-04-22 20:15:01, INFO: Number of layers: 2
2024-04-22 20:15:01, INFO: self.model:ValueNetwork(
  (gat0): GraphAttentionLayer(
    (w_a): Sequential(
      (0): Linear(in_features=64, out_features=64, bias=True)
      (1): ReLU()
      (2): Linear(in_features=64, out_features=1, bias=True)
    )
    (leakyrelu): LeakyReLU(negative_slope=0.04)
  )
  (gat1): GraphAttentionLayer(
    (w_a): Sequential(
      (0): Linear(in_features=64, out_features=64, bias=True)
      (1): ReLU()
      (2): Linear(in_features=64, out_features=1, bias=True)
    )
    (leakyrelu): LeakyReLU(negative_slope=0.04)
  )
  (w_r): Sequential(
    (0): Linear(in_features=6, out_features=64, bias=True)
    (1): ReLU()
    (2): Linear(in_features=64, out_features=32, bias=True)
    (3): ReLU()
  )
  (w_h): Sequential(
    (0): Linear(in_features=7, out_features=64, bias=True)
    (1): ReLU()
    (2): Linear(in_features=64, out_features=32, bias=True)
    (3): ReLU()
  )
  (value_net): Sequential(
    (0): Linear(in_features=32, out_features=150, bias=True)
    (1): ReLU()
    (2): Linear(in_features=150, out_features=100, bias=True)
    (3): ReLU()
    (4): Linear(in_features=100, out_features=100, bias=True)
    (5): ReLU()
    (6): Linear(in_features=100, out_features=1, bias=True)
    (7): ReLU()
  )
)
2024-04-22 20:15:01, INFO: GCN layers: 2
2024-04-22 20:15:01, INFO: Policy: sg_dq3n
2024-04-22 20:15:01, INFO: human number: 5
2024-04-22 20:15:01, INFO: Not randomize human's radius and preferred speed
2024-04-22 20:15:01, INFO: Training simulation: circle_crossing, test simulation: circle_crossing
2024-04-22 20:15:01, INFO: Square width: 10, circle width: 4
…
